handwritten-digit-classifier-pytorch/model.pth (torch, 829288 bytes, 8 tensors)

weight f4 [6, 1, 5, 5]
000000 bb e0 8f 3e 24 86 8a ba df dc 54 3e 1d c6 42 3e
       0.28101143 -0.0010568541 0.2078738 0.19020887
000010 19 79 ef 3e c8 79 64 3e c0 2b de 3e f3 ff 95 3e
       0.46772078 0.22312081 0.43392754 0.29296836
000020 af 2d c1 3d 0a 10 24 3e b0 d6 5a 3e 2e 83 24 3e
       0.094325416 0.16021743 0.2137096 0.16065666
000030 f8 2b ed ba 5a bf 3c 3e cd b0 f4 bd a7 b2 9b be
       -0.0018094769 0.1843237 -0.119477846 -0.30409738
000040 52 f8 d4 be 61 74 99 be fe 77 d9 bd bd 1c 65 3c
       -0.41595703 -0.29971603 -0.1061859 0.0139839025
000050 2d f7 b1 be ae 36 8a be ae e5 a7 be 71 af a8 be
       -0.34758893 -0.26994842 -0.3279242 -0.3294635
000060 0d 80 5d be 01 fb 4a be 2f c5 d9 bd 32 fc e0 be
       -0.21630879 -0.19822313 -0.10633313 -0.4394241
000070 f8 e4 a2 be 3f 61 0e be 2d 61 d0 bd f4 91 b0 be
       -0.31815314 -0.13904284 -0.10174785 -0.34486353
000080 66 09 9a be 63 1b d6 be 5f 09 72 be 23 95 1d be
       -0.30085295 -0.4181777 -0.23636387 -0.15388922
000090 3e b6 28 3c 3d 1b 92 bd e5 74 b0 bd ea b0 10 be
       0.010297356 -0.071341015 -0.08616046 -0.14129987
0000a0 20 2d d9 3d 20 97 bb 3e 4c dd 3d 3d c0 ad bd 3c
       0.1060431 0.36638737 0.046353623 0.02315414
0000b0 54 3f 5b 3e 0e b3 ce 3e db dc fe 3e ba 18 1e 3f
       0.21410877 0.40370983 0.49777874 0.6175648
0000c0 1e 2d fa 3e 0e 81 e6 3e 5a fa 04 be a2 32 d9 3c
       0.48862547 0.45020336 -0.12986127 0.026513401
0000d0 0c f6 49 3c 4a 0d 42 3e 25 7c c0 bd 70 1a 09 be
       0.012326729 0.18950382 -0.09398679 -0.13388991
0000e0 cb ec 1a be 37 0e 5a 3e 13 28 b2 3e 30 c2 44 3e
       -0.15129392 0.21294485 0.347962 0.19214702
0000f0 a2 d2 14 be f3 bb 8b be 72 90 54 3d 1b b5 82 3e
       -0.14533475 -0.2729183 0.051895566 0.25528798
000100 78 8d 97 3c aa 25 41 be ad 8f 13 be ee ff 0d 3d
       0.018500075 -0.18862024 -0.14410277 0.0346679
000110 19 dc db 3e d1 bb aa 3e 23 e2 e2 be 0b 99 99 be
       0.4294136 0.33346418 -0.44313154 -0.29999575
000120 8c 25 41 3e 6a fb 97 3e 55 59 be 3e b6 d7 95 3e
       0.18861979 0.29684 0.3717753 0.29266137
000130 87 37 8f 3d 56 39 24 3d 8a ae ca bd 7f 6c 02 3d
       0.06993013 0.040093742 -0.09896572 0.03184175
000140 bc 55 6d 3e 72 cf ba 3e 9c 67 f4 3c 91 41 41 3d
       0.23177236 0.36486393 0.029834561 0.04718167
000150 d8 07 62 be b6 3c df 3d d2 9c a9 3e 3c 62 9d 3e
       -0.22073305 0.109002516 0.33127457 0.3073901
000160 e1 5e 06 bd af 29 af bc 81 17 24 be 4b 90 df bd
       -0.032805327 -0.021382181 -0.16024591 -0.109161936
000170 84 d5 9e 3e 15 f9 93 3e 16 11 88 3e a4 cb a9 be
       0.31022274 0.28900972 0.26575536 -0.33163178
000180 78 d9 97 bc 37 08 1c 3e 9e ec 30 3d 31 9e 75 3e
       -0.018536314 0.15237509 0.043194406 0.23986126
000190 a6 b3 bd bd 4c f8 76 be 30 92 9e be 84 84 4a be
       -0.09262781 -0.24118155 -0.30970907 -0.19777113
0001a0 66 26 5d be de 53 4d bc 50 ab d1 bd cf 6d a1 be
       -0.21596679 -0.0125322025 -0.102377534 -0.3152909
0001b0 56 2d e5 3d 4a 5f 28 3e d8 4a a4 3b d1 5a 47 be
       0.11190288 0.164426 0.005013805 -0.19468237
0001c0 4d 99 05 be 9b 75 a6 3d a8 0f ab 3e d7 f9 0e bc
       -0.13046761 0.081279 0.33410382 -0.008726559
0001d0 64 e3 01 be b6 52 8c 3e cc 4e cb 3e 3b 00 b5 3e
       -0.12684399 0.27406853 0.39708555 0.35351738
0001e0 96 17 c6 3d 15 a0 f3 bd 8a f5 9c bd 6e fd 35 3e
       0.096724674 -0.118957676 -0.0766402 0.17772457
0001f0 41 2b 5a 3e fc eb a8 3e 65 d5 85 3d 39 76 57 3e
       0.21305563 0.32992542 0.065348424 0.21041192
000200 dd 5a c5 3e 0c 46 ed 3e 14 3e 6f 3e 85 52 3d 3e
       0.38545886 0.46342504 0.23363525 0.1848851
000210 a6 f2 3e bd f3 68 e8 bd 0c 9f 29 be d6 e5 3e be
       -0.046618126 -0.113481425 -0.16564578 -0.18642363
000220 32 3c 28 be 02 fa 0e be 59 67 72 be fc fa fa bd
       -0.16429213 -0.13962558 -0.23672237 -0.12254903
000230 9e e1 6b be ff 90 99 be b7 bd da be d4 a6 9d be
       -0.23035285 -0.29993436 -0.42722866 -0.30791342
000240 29 f9 6d be 19 7c e5 be b5 3b e3 be 78 96 9b be
       -0.23239578 -0.44821241 -0.4438149 -0.30388236
000250 af fe c2 be f1 1e b4 be
       -0.38084933 -0.35179856

bias f4 [6]
000000 31 f1 6e 3e 42 41 ae 3e a6 02 d7 3e 1d 48 b1 3e
       0.23334195 0.34034163 0.41994208 0.3462533
000010 e5 eb 68 3d 17 28 cd 3d
       0.05686559 0.10017412

weight f4 [16, 6, 5, 5]
000000 67 a0 17 3d 45 f7 8a 3c b6 b6 67 bd f2 82 83 bc
       0.037018206 0.01696361 -0.05657073 -0.01605365
000010 bc a6 92 3c 01 66 90 bb b7 80 53 bd 50 d5 32 bd
       0.01790177 -0.004406691 -0.051636424 -0.043660462
000020 37 de 92 bd 6b 56 5f 3d 5f aa 8e 3a a8 2c b3 bc
       -0.0717129 0.054525774 0.0010884515 -0.02187188
000030 2c 58 56 bc 8c af 8b 3c 8b 86 3f bc 21 f2 2d bd
       -0.013082545 0.01705148 -0.011689792 -0.04246724
000040 f5 06 85 bd b4 47 60 bd 92 7e 94 bd 3b d9 1d 3d
       -0.064954676 -0.05475588 -0.07250704 0.038537245
000050 17 51 86 bc 76 d1 8a 3d 95 cc 29 bd ff a6 27 3d
       -0.016396089 0.06778233 -0.04145487 0.040930744
000060 b5 b6 68 bc bc ba 40 bd 72 87 23 bd 45 e3 41 3c
       -0.014203717 -0.047053084 -0.039924093 0.01183397
000070 9a fc f6 bc 81 3c 99 bd f3 23 8a bd 06 02 1b bd
       -0.030149747 -0.07482243 -0.06745138 -0.037843727
000080 ba 4d a1 3d 39 0f 93 bc 7a 76 4e 3c aa f6 cc bc
       0.07876153 -0.017951595 0.012601489 -0.025019962
000090 9f f8 1d bc 97 94 88 3d 76 df 30 bd 8e 86 45 3d
       -0.009641795 0.06668966 -0.04318186 0.048224024
0000a0 74 dc 3c 3d 65 2d 83 bd a6 09 2e bd 65 a1 ac bc
       0.046108678 -0.06405143 -0.04248967 -0.021073053
0000b0 de b2 9c bd fa 67 9e bd 47 9d 63 bd 3e 70 73 b9
       -0.07651304 -0.07734676 -0.055569913 -0.000232161
0000c0 99 f6 bd bc 1f 99 42 3d c9 b0 89 3d 6d e6 a2 3d
       -0.023188876 0.04750931 0.06723172 0.079541065
0000d0 ec 5c 7e 3c 80 41 37 bd 18 1a 55 3d 86 a1 6b bd
       0.015525084 -0.0447402 0.052026838 -0.057527088
0000e0 d4 50 ff b8 c0 11 bf bb a8 f6 43 bd 4c fd 22 3d
       -0.00012174403 -0.0058309734 -0.04784265 0.039792344
0000f0 53 52 0e 3d 63 60 a5 3d c1 c5 37 bd f4 de f9 bc
       0.03474648 0.08075025 -0.044866327 -0.03050182
000100 38 1d 8f 3d e1 4d 0e bd e0 5b 53 bd f1 32 88 bd
       0.06987995 -0.03474224 -0.05160129 -0.06650341
000110 74 36 b4 bc 55 66 58 3d 24 c7 07 bd c4 cb 07 bc
       -0.021998622 0.052831966 -0.0331489 -0.008288328
000120 70 3d 55 bc 91 19 29 3d d7 43 63 bd 31 a4 91 3c
       -0.013015136 0.041284148 -0.05548462 0.017778488
000130 55 42 3c 3a 2b 9b 9e bd db 4b 14 bd 3b 7b a1 bc
       0.0007181515 -0.0774444 -0.036205154 -0.019712081
000140 ec 67 6f bc 75 1a 8a bd 3d 11 67 3d 63 24 72 bc
       -0.014612179 -0.067433275 0.056412924 -0.014779183
000150 92 a9 27 bd 2e 38 a2 bd ed 5e a2 bd 4e 02 b8 3c
       -0.0409332 -0.07920872 -0.07928262 0.022462036
000160 5e bf 6e 3d ee 9c 2c bc b0 d9 21 bd 34 65 2e 3c
       0.05828797 -0.010535462 -0.039514244 0.010644246
000170 10 ae 55 bd a5 4b 0b bc 87 9f 50 bd ae 3f d6 3c
       -0.052167952 -0.008501922 -0.050933387 0.026153412
000180 3a 55 e6 bc 15 9c 18 bd 63 8f b0 3c fd 71 38 bc
       -0.028116811 -0.037258226 0.021552747 -0.011257646
000190 e0 28 2b bd 92 0f f8 3c e5 03 68 bd 2e 16 9e 3d
       -0.04178703 0.030280862 -0.05664434 0.07719074
0001a0 5a ff 43 3c 5d 11 a3 3d 29 f5 26 bd de 0b 9c bb
       0.011962736 0.07962296 -0.040761147 -0.004762157
0001b0 10 ed 86 3d a1 27 8f bd 44 40 98 bd 6f 36 43 3d
       0.06588185 -0.069899805 -0.07434133 0.047659334
0001c0 f3 c0 d3 bc 88 82 34 3d 73 a2 6b bd 6c d5 6a bd
       -0.025848841 0.044069797 -0.05752797 -0.05733244
0001d0 c4 ed b9 3b 4e 7b f1 3c 3c f5 8b bc 89 30 b4 bc
       0.005674096 0.029477742 -0.01708471 -0.0219958
0001e0 b6 30 7c 3d 29 a2 9d 3c 6e a2 30 3d 8c b5 74 3d
       0.061569892 0.019242363 0.043123655 0.05974345
0001f0 5d 2a 8b 3d cc 90 86 bd bf 13 b0 3c 9f a0 cc 3b
       0.067951895 -0.065705866 0.02149379 0.0062447335
000200 c1 40 49 bd 0b 82 1d bd ef af d5 3c b7 80 01 bd
       -0.04913402 -0.038454097 0.026084868 -0.031616893
000210 86 4d a0 bd 46 3d 44 3d 8e 6b e7 bc da 72 52 bd
       -0.078272864 0.047909997 -0.028249528 -0.051379062
000220 78 5a 59 bd 91 a1 95 3d 0b 9d 96 bd a7 99 17 bd
       -0.053064793 0.07306207 -0.07354172 -0.03701177
000230 e2 18 7c 3d 5b 71 03 3d 13 31 39 bd 07 3d fd 3c
       0.061547168 0.032090526 -0.045212816 0.03091289
000240 04 be 56 bd d5 06 79 bd 21 5e 9e 3d 55 03 80 ba
       -0.052427307 -0.06079753 0.077327974 -0.0009766618
000250 a6 70 62 bc 4d ba fb 3c 7d e3 f5 bc a1 f0 c4 bc
       -0.013820803 0.030728484 -0.030015701 -0.024040522
000260 f6 47 94 bd f3 85 a1 3c bd 1c 21 3d b5 f0 66 bd
       -0.07240288 0.019717192 0.039334048 -0.0563819
000270 1c eb a5 3d 63 84 6f bc 73 7b 3d bd 2b b5 86 3d
       0.08101484 -0.014618966 -0.04626031 0.06577524
000280 b2 87 84 bc e1 db 85 3d 26 2a 80 bd b0 ec 77 bd
       -0.016177986 0.06536079 -0.06258039 -0.060528457
000290 08 61 71 3d bf 5f 06 3d cd 82 66 bd ea 46 52 bd
       0.058930427 0.032806154 -0.056277085 -0.05133716
0002a0 eb 33 26 3c 64 37 b3 3c 0d 86 e0 bc f5 d0 4f 3c
       0.010144214 0.021876998 -0.02740767 0.012684097
0002b0 41 29 00 3d 4a e2 97 bd a6 b7 15 3d dd 26 46 3c
       0.031289343 -0.07416208 0.036552094 0.012094227
0002c0 4b 60 86 bd a2 93 49 bd 69 33 a1 bd 1d 7e 02 3d
       -0.06561335 -0.04921306 -0.07871134 0.031858552
0002d0 8d ce a7 3d fd c7 2d bc 21 e8 05 3d eb a1 87 bd
       0.08193693 -0.010606763 0.03269208 -0.0662268
0002e0 b1 10 91 bd 00 16 62 3d 02 31 ad 3d 35 92 4d bd
       -0.07083262 0.055196762 0.08456613 -0.050188262
0002f0 e2 d8 9e bc 8c 1f 85 bd 95 bf be 3c d9 d5 e9 3d
       -0.019390527 -0.06500158 0.023284713 0.11417741
000300 14 e7 0e bc 43 ca 88 3d 86 8a fb bc a4 48 85 bd
       -0.0087220855 0.06679203 -0.030705702 -0.06507996
000310 f7 11 c2 3d 70 d0 0e 3d 9a a8 68 bd b3 70 2c bd
       0.09476083 0.03486675 -0.056801416 -0.042099666
000320 4a c9 4d 3b 27 f7 85 bd e5 00 a0 3c 1f b7 30 3d
       0.0031400495 -0.06541281 0.019531677 0.043143388
000330 a1 c8 99 bc ff 37 8f bd ec ac 51 3d b5 45 74 bd
       -0.018772425 -0.06993102 0.0511903 -0.05963679
000340 63 fc 7a bd 63 72 60 bd d8 40 b6 bc 9a 22 85 bd
       -0.06127585 -0.054796588 -0.022247717 -0.0650074
000350 4b cb 82 bd 37 29 fa 3b b0 58 e2 3c 29 45 0a 3d
       -0.06386431 0.0076343077 0.02763018 0.033757363
000360 1a 13 f4 bc 6f b3 22 3d b4 77 1a bd 5e e1 7d bc
       -0.029794265 0.039721902 -0.037711814 -0.015495626
000370 16 3b c6 3d e0 a3 a0 3d 51 25 d7 3b 37 6e 8c bd
       0.096792385 0.07843757 0.0065657278 -0.06856959
000380 5c 97 cc 3c 2f 84 8e 3d 01 d4 cd 3c 23 45 fd 3c
       0.024974518 0.06958806 0.025125505 0.030916756
000390 4b 7b 75 bd ff 64 11 bd cf 0c 2a bd d5 42 bd bb
       -0.059932034 -0.035496708 -0.04151612 -0.0057757893
0003a0 ec f7 f5 bc 26 50 b9 3b 2d 9b 5e bc 7a 32 60 bb
       -0.030025445 0.0056553064 -0.0135868015 -0.0034209774
0003b0 5c 2e 2d bd 32 e7 79 bd b5 7d e6 bb d0 a0 87 3d
       -0.04228054 -0.0610115 -0.0070340284 0.066224694
0003c0 a2 d0 a1 3d 5e 33 97 3d 1f 4a 88 bd ce fe 13 bd
       0.07901122 0.073828444 -0.066547625 -0.036131673
0003d0 49 25 a2 3c 03 58 ab 3c 4a 1b ce bc 6e ab 11 bd
       0.01979317 0.02091599 -0.025159497 -0.03556388
0003e0 97 83 ae 3c 8d 53 36 bc d8 ee 7d 3d 79 40 24 3c
       0.021302981 -0.0111283185 0.061995357 0.010025137
0003f0 15 5c e8 bc dc 25 6e bd 21 62 6e 3c 2f 81 84 3d
       -0.02836422 -0.058141574 0.014549763 0.06469952

bias f4 [16]
000000 2a 13 a2 bd db ec 54 3d 04 af f6 3c 21 60 ad 3b
       -0.079138115 0.051983695 0.03011275 0.0052910005
000010 f9 d0 44 bd 4d 89 15 3d ed 71 34 3d e8 87 0c bd
       -0.048050854 0.036507893 0.04405396 -0.034309298
000020 f3 9a 85 bb 12 00 9e bc 69 07 a5 bd c7 26 01 bd
       -0.0040773093 -0.019287143 -0.08058054 -0.03153112
000030 13 5d 8b bb 29 ad c7 3b 73 55 e5 bc cd 5d 94 bd
       -0.0042530387 0.0060936403 -0.027994847 -0.072444536

weight f4 [256, 784]
000000 54 12 1d bc 53 b5 b7 3c 55 86 aa 3c c3 68 86 bc
       -0.009586889 0.02242533 0.020816008 -0.016407376
000010 32 20 79 3c 4e b4 52 3c f8 f9 cc bc 28 17 56 3a
       0.01520543 0.012860371 -0.025021538 0.00081669027
000020 06 6f da bc 6e 39 ac bc 64 1f fa 3c da ea 6a bb
       -0.026664268 -0.021023478 0.030532546 -0.003584555
000030 ea 56 82 3c e5 7a cd bc 96 5e d1 3c a3 ff 5f bc
       0.015910584 -0.025083015 0.025557797 -0.013671788
000040 3b 13 dd 3c 6c a1 30 bc ee 09 dc bc e0 23 d9 bc
       0.026986709 -0.0107806735 -0.026860204 -0.026506364
000050 5c 12 01 3d cc c4 a6 3c 1e fd 9a bb 2d fc e6 3c
       0.03151165 0.020357512 -0.004729881 0.028196419
000060 80 64 95 bc 88 fe cb bc fd fa ce 3c 73 97 a9 3c
       -0.018236399 -0.024901643 0.025266165 0.0207021
000070 8b dc d1 bc 45 ca ee 3c d9 e1 f2 3c f0 7e 48 3c
       -0.025617858 0.029149184 0.029648708 0.0122372955
000080 7e 28 cd bc 87 22 4c bc 1e 7d 00 bd 33 07 f8 3c
       -0.025043722 -0.012459404 -0.03136932 0.03027687
000090 f6 e2 ce bc 0f ff e2 3a 74 c0 a1 3c af 91 06 3d
       -0.025254708 0.0017318445 0.01974509 0.03285378
0000a0 03 69 47 3c fa ce 7e 3c 4c 69 e2 bc 6d d5 0e 3d
       0.012171033 0.015552277 -0.0276381 0.034871507
0000b0 9e 45 83 3c cf 78 93 bc 5d 13 bb ba fc ec 20 bc
       0.016024407 -0.018001942 -0.0014272738 -0.0098221265
0000c0 ac 45 03 bd d8 92 f1 bc 11 12 5b 3c 17 7c 47 bc
       -0.032048866 -0.029488966 0.013371007 -0.012175581
0000d0 42 23 02 3b 73 21 fd bc f6 ae d4 bc 0f 88 09 3d
       0.001985744 -0.030899739 -0.025962334 0.03357702
0000e0 6d 32 1a 3c 24 4b 8d bc fe 8e 46 3c 8f 84 5b 3a
       0.0094114365 -0.017247744 0.012119053 0.000837394
0000f0 92 f4 22 3c 95 a4 cf 3c 06 31 90 bb 8f fa fd bb
       0.009946005 0.025347034 -0.0044003753 -0.007750816
000100 9b e8 db 3c 07 d5 a0 3b 79 8a 6b bc 98 3f 3f 3c
       0.026844313 0.0049082073 -0.014376276 0.011672877
000110 92 77 05 bd c9 2a 70 bc 5e 24 d8 bc 93 9e 65 3c
       -0.032584734 -0.014658638 -0.026384529 0.014014858
000120 ba 7a fc 3a 22 d0 5a 3c c6 2b f9 3c fa 6f 2f 3c
       0.001926265 0.013355287 0.03041638 0.01070785
000130 1c 0f df bc 92 47 31 bc 93 0e a6 3c ff 9c 8f bc
       -0.027228884 -0.010820286 0.020270621 -0.017530916
000140 84 62 f4 3c 18 65 8f bc 0d ad bb 3c 82 c1 fd bb
       0.029832132 -0.01750426 0.022909665 -0.007744015
000150 55 c9 d5 bb 0f e5 0a 3d 61 9b e9 bc 59 bc a9 3a
       -0.006524245 0.033909854 -0.028516473 0.0012949809
000160 0b 5e 3d bb 6b dc 38 39 da 09 85 bc 98 b4 0a 3c
       -0.0028895165 0.0001762972 -0.01624005 0.0084659085
000170 fc aa 04 bd 8c 8f 61 bc d0 37 9e 3c f5 74 b8 3c
       -0.032389626 -0.013767134 0.019313723 0.022516707
000180 ed 24 bd bc a4 07 1d 3c ce 3e f6 3c 51 de 98 3c
       -0.023088897 0.009584341 0.030059244 0.018660696
000190 40 8f aa bc 0f f9 26 bc 15 8f b3 bc 9d c2 b2 3c
       -0.02082026 -0.010191216 -0.021918813 0.021821314
0001a0 9a 74 f8 3c 94 e5 6f 3c f1 72 da ba 8a 53 df bc
       0.030329037 0.014642138 -0.0016666335 -0.027261514
0001b0 7d 66 ed 3b 94 2b a6 3b 8b 2d eb 3c 81 a9 06 bd
       0.0072448836 0.005071113 0.02870824 -0.032876495
0001c0 e8 5d 1b 3b 0b 7c ef bc 17 6f b7 bd a4 3e a6 bb
       0.0023707096 -0.029233953 -0.089567356 -0.0050733853
0001d0 ff 06 db bc ca 37 b7 3c 83 a6 d8 3c 4c 0e 5a bc
       -0.026736734 0.02236547 0.026446586 -0.013309073
0001e0 cf 48 9e bd d4 49 a0 bc e8 b6 90 bc fd e0 3e bd
       -0.07728731 -0.019566454 -0.017665341 -0.046601284
0001f0 81 db 25 bd 11 6d 08 3c d3 48 88 3b ff 2b bf bc
       -0.04049254 0.008326785 0.004159072 -0.023336409
000200 72 f3 a9 3c 35 5b 8e 3c 15 42 4e bc 2e 6d 63 bc
       0.020745967 0.017377475 -0.012588997 -0.013881011
000210 f0 01 80 bc 3b 9c 5f 3c cd cd 30 3c 1c 69 23 3d
       -0.015625924 0.013648088 0.010791254 0.039895162
000220 b6 fd 8f bb 1b 62 0e 3d 54 bc 86 3c ca 62 4b bc
       -0.0043942584 0.03476153 0.016447224 -0.01241369
000230 37 65 eb 3c 0c 38 d3 bc a9 8e 00 bb d3 b4 d4 bb
       0.028734786 -0.025783561 -0.0019616282 -0.0064912825
000240 09 a1 0a bd db c9 90 ba 2f 2e cb bc 25 9c 57 3c
       -0.03384498 -0.0011046486 -0.024802295 0.013159786
000250 19 51 ce 3c 31 47 25 3d ad 0f 61 bc 08 7e c1 ba
       0.025185155 0.040351097 -0.013736648 -0.0014762292
000260 60 f4 8d bc bf f1 78 3c 50 97 75 bc a2 8c 52 bc
       -0.017328441 0.0151943555 -0.014989689 -0.012850912
000270 02 be df 3b 19 f4 02 3d 64 40 d4 bc ad ef ab bc
       0.0068280706 0.03197107 -0.02590961 -0.02098831
000280 dd 6a e2 bc 18 89 a0 3c 16 bd 8b bc 8c c3 ff bb
       -0.027638847 0.019596621 -0.017057937 -0.0078052934
000290 16 eb a9 3c c4 78 9d 3b c3 e3 45 bc 2b 35 10 bd
       0.02074198 0.004805656 -0.012078228 -0.035206955
0002a0 b6 46 98 bc 99 47 6c bc 9e 7e 2a bd ad 34 f2 3c
       -0.018588405 -0.014421367 -0.041624658 0.029566133
0002b0 71 f9 cd 3c cd c2 30 bc 4d 5d 57 3c 44 03 4c 39
       0.025143357 -0.010788632 0.013144803 0.00019456173
0002c0 0f 83 2f bd aa 5f b1 3c 56 a2 e8 3c 8e c2 e5 3c
       -0.042849597 0.021652061 0.02839772 0.028046872
0002d0 3e 88 e7 bc 75 fe c9 3b 6b 2d 59 3c 2e 8d 83 3c
       -0.028263208 0.006164367 0.013255457 0.01605853
0002e0 3b dc 1a 3d 9d ba 04 bc e4 41 9d 3c 9d 6b af 3c
       0.037807684 -0.008101133 0.019196458 0.021413619
0002f0 c5 df 2f bc 8c f4 52 bc 33 b5 22 bc ed c6 c2 bc
       -0.010734503 -0.012875687 -0.009930897 -0.023776496
000300 4a c3 49 3c 89 f2 37 bb 59 0f b6 3c 86 a2 80 3c
       0.012314627 -0.0028068146 0.022224115 0.015702497
000310 06 34 31 bc 6a c9 a4 bc 5e 80 d3 ba d9 f1 13 3d
       -0.010815626 -0.020115573 -0.0016136279 0.036119316
000320 cc 84 e4 bc d0 b9 65 3c 58 c2 94 bb a6 99 d2 3c
       -0.027895354 0.014021352 -0.004539769 0.02570803
000330 6f f3 53 3d 6f 52 f0 3c 27 0a 04 3d 00 24 31 bc
       0.05174583 0.029336182 0.032236245 -0.010811806
000340 42 e3 36 bc 03 65 00 3d 84 55 4c 3d 6b 5a 4c 3d
       -0.011162581 0.031346332 0.04988624 0.049890917
000350 b8 5f 37 3d da 26 95 bc 2e 58 c6 3b 9e 7c 1a bc
       0.04476902 -0.018207002 0.0060529923 -0.009429125
000360 ab ae 16 bd a0 44 f4 3c ac 99 b4 bc 33 b1 e3 3b
       -0.03678767 0.02981788 -0.022045933 0.006948614
000370 c0 dd 80 3c 15 49 1f 3d 23 67 33 bc 1c 06 32 3a
       0.015730739 0.038888056 -0.010949883 0.00067910715
000380 8a e6 87 bc b9 34 cf bc 4d ac 0e ba d7 30 aa 3c
       -0.016589422 -0.025293695 -0.0005442545 0.020775242
000390 d7 5a 3b ba 95 07 15 bb 4d d8 36 3d e1 7a ce bc
       -0.000714702 -0.0022740115 0.044639874 -0.025205078
0003a0 41 15 70 bc e5 a8 7e 3c bc ac c9 3b eb 0b 96 bc
       -0.014653505 0.015543197 0.0061546247 -0.01831623
0003b0 12 28 a6 b9 7c 6a 93 bc cb dd bb 3c 08 8d 3e bc
       -0.00031691842 -0.017995112 0.022932908 -0.011630304
0003c0 e0 29 29 bd cd 2a f5 3a 0f 51 66 ba e5 41 b6 bc
       -0.0412997 0.0018704772 -0.00087858824 -0.022248218
0003d0 00 29 4a 3c 87 0a 85 bc c7 ae 12 3c fa e9 9a 3c
       0.012338877 -0.016240371 0.008952803 0.018910397
0003e0 a9 44 9f 3c 37 14 93 bb fe 29 17 bd 38 9f 02 3b
       0.01944192 -0.004488494 -0.03690528 0.0019931328
0003f0 fa 42 87 3c ee 1f da bc 79 48 8f bc 66 98 cd 3c
       0.01651143 -0.026626553 -0.017490612 0.025097083

bias f4 [256]
000000 04 aa f3 bc b4 10 41 3c 1e bd cd 3c 91 c9 18 3c
       -0.029744156 0.0117837675 0.025114592 0.009325401
000010 1e 10 bc 3c 43 68 ab bc 82 2b c4 3c bb 32 cb 3c
       0.022956904 -0.02092374 0.023946527 0.024804464
000020 f2 c1 e8 bb f0 03 30 3b de fe ce bb 84 42 3b 3b
       -0.007103198 0.0026857816 -0.0063170036 0.0028573582
000030 71 52 e9 3c 57 a7 76 3b 5e aa 2f 3c 17 e5 e1 3c
       0.028481694 0.0037636363 0.010721771 0.027575059
000040 81 f8 ea 3c ef 83 e4 bc b7 7b a7 bc c6 21 fc bb
       0.028682949 -0.027894942 -0.020444734 -0.007694456
000050 2e 67 fa 3c c9 85 ee bc ae e4 0d 3c 80 8a 15 3c
       0.030566778 -0.029116528 0.0086604785 0.009127259
000060 c8 7c ba bc a8 fc a2 3b 26 34 8b 3c 6c 71 aa ba
       -0.022764578 0.0049739666 0.01699264 -0.0013003773
000070 cf 26 f5 3c 04 cc 87 bc 93 89 f9 3c 25 ea 53 3c
       0.029925732 -0.016576774 0.030461108 0.012934242
000080 0a e0 84 39 d9 0d df bb 0e e0 fe 3c 88 f1 e7 bb
       0.00025343924 -0.0068070707 0.031112697 -0.0070783533
000090 66 bc 13 bb 60 9d 84 bc b7 c0 b1 bc 10 e1 b9 bc
       -0.0022542714 -0.016188323 -0.021698339 -0.022690326
0000a0 17 88 14 3c a1 b4 57 3c c2 7e 58 bb 50 23 80 3c
       0.0090656495 0.013165624 -0.0033034538 0.015641838
0000b0 f8 aa 2a 3c 19 18 da 3b 67 ae 98 3c 7f 68 9f 3c
       0.010416739 0.0066557047 0.018637849 0.019459007
0000c0 7b a1 b6 bc d7 96 0b bd 86 58 a2 bc f7 a2 fe bc
       -0.022293797 -0.0340794 -0.019817602 -0.031083567
0000d0 01 2b d5 3c 6f e8 02 bc bb 20 d2 bb ca 01 da bc
       0.026021482 -0.007989987 -0.006412593 -0.026612181
0000e0 d9 6a 6d bc 65 aa 07 3c a2 ad f9 3c 17 36 aa bb
       -0.0144908065 0.008280371 0.030478302 -0.0051944363
0000f0 1b 5b 37 bc 0b d3 93 ba 93 3b 4d 3c 78 c2 d7 3b
       -0.011191155 -0.0011278106 0.012526411 0.006584462
000100 d5 1a 80 3c 60 1f 96 3c 48 f6 12 bd 11 7d 47 3c
       0.015637795 0.018325508 -0.035879403 0.012175814
000110 b0 bf c7 3c c9 7e d5 bc 35 a8 60 3b db c8 0c 3c
       0.024383396 -0.026061432 0.0034279947 0.00859281
000120 21 a6 c8 3c da 07 65 bb 64 8c 5c 3b 5c 96 4d 3c
       0.024493279 -0.0034947307 0.0033653015 0.0125480555
000130 18 4d 0f bc e8 4c d4 3b 47 e3 f1 bc f5 29 1b 3c
       -0.008746408 0.0064788945 -0.02952732 0.009470453
000140 46 e1 14 3c 56 76 03 3d 84 ce 55 3c 41 6e 68 bc
       0.0090869125 0.032095276 0.013049725 -0.014186443
000150 c7 79 f1 bc 42 08 c3 bb af e1 e4 bc a6 04 ae bc
       -0.029477013 -0.005951912 -0.027939646 -0.02124245
000160 37 9d 17 3d 91 f6 9a ba c8 e9 e4 3b a4 db e0 3c
       0.037015166 -0.001182275 0.0069858767 0.027448483
000170 54 af 3e bc b6 7d dd bb 9c 72 77 3c f4 6d 13 bc
       -0.011638481 -0.0067593707 0.015103009 -0.008998383
000180 d2 66 3a bc dd 1f 1a 3c 26 1e b5 bb 92 95 e4 3c
       -0.011377053 0.009407011 -0.0055272756 0.027903352
000190 bb a1 15 bd 6f 4f 12 3c 04 c3 99 3c cc fb a5 3c
       -0.03653119 0.008930071 0.018769749 0.020261668
0001a0 aa f1 32 bc 9d 02 fe bc dc 02 91 3b f5 a3 76 3c
       -0.010921875 -0.031007105 0.0044253897 0.015053739
0001b0 90 e4 d1 bb bb 03 72 bc 02 94 a8 bc ac a5 e6 bc
       -0.0064054206 -0.014771397 -0.020578388 -0.02815517
0001c0 05 63 ff 3c 0c 60 0a bd da 6e 83 3c 2c 9b f0 bc
       0.031175146 -0.033783004 0.01604407 -0.029370867
0001d0 9d 28 23 3c 9c f7 bb bc 70 fd 5c bc 80 65 d8 ba
       0.009958413 -0.022945218 -0.013488159 -0.0016509742
0001e0 f5 46 e1 3c e5 13 5c bc 92 0f 14 3a 84 b0 ae bc
       0.027499655 -0.013432478 0.0005648072 -0.021324404
0001f0 2d 3c 91 3b f7 4b 94 bb b6 e2 43 bc 72 82 15 3d
       0.0044322223 -0.0045256573 -0.011955908 0.036501355
000200 78 92 94 bc 7d ed 00 bd 84 4d 04 3d 0b cc f2 ba
       -0.018136248 -0.031476486 0.032300487 -0.0018523944
000210 b9 5f e1 bc dd de 0c bc e5 13 34 bc 30 f9 e3 bc
       -0.027511464 -0.008598057 -0.010991071 -0.027828783
000220 53 1c 47 3c 9a c7 bd b8 83 11 46 bc 51 a7 a3 bc
       0.012152749 -9.049401e-05 -0.012089136 -0.019977244
000230 e0 df f1 3c 0f 82 e8 bc 69 77 bc bc ca 3f d0 bc
       0.029525697 -0.02838233 -0.023006158 -0.025421042
000240 63 39 40 3c 86 48 32 bc c7 1c 9e bb ba 6e 04 bd
       0.011732432 -0.010881549 -0.004825208 -0.03233216
000250 89 ab db ba 7c ae b3 bc 7f 72 ba 3c 12 55 08 bd
       -0.0016759495 -0.021933787 0.022759674 -0.033284254
000260 08 03 4b 3c 2e f1 17 3d 16 97 36 3c 09 0b 08 3d
       0.012390859 0.03709524 0.01114442 0.03321365
000270 6f 56 23 bc 7b 24 8b 3c 3a 5c 7b bc 7b 8f e3 38
       -0.009969338 0.016985169 -0.015341813 0.00010850929
000280 6c 85 f5 3c f9 f6 d7 bc c0 4f 3f 3c 11 46 0a bd
       0.029970847 -0.026362883 0.011676729 -0.033758227
000290 f4 fb d2 bc ec 54 a2 bc 16 1f e9 bc 1a 76 28 bc
       -0.025754906 -0.019815885 -0.028457206 -0.010282064
0002a0 c5 10 8f bc 2a e7 06 3d 32 a9 9f ba 37 5d 68 3c
       -0.017464051 0.0329353 -0.0012181161 0.01418238
0002b0 53 e2 8f 3c 12 d4 10 3c de 70 09 bd 4a 0b d6 bc
       0.017563974 0.008839624 -0.033554904 -0.02612843
0002c0 a5 b6 86 3b 24 47 ce 3c 96 69 a5 3c d9 37 08 bc
       0.0041111284 0.025180407 0.020191949 -0.008314096
0002d0 f1 da e0 bb 47 74 ff 3c a6 25 fa 3b 46 57 ef 3c
       -0.0068620373 0.031183375 0.0076338826 0.02921642
0002e0 d3 3d e4 3c 04 3a 6b bc 08 ec 09 3c 38 21 8e 3b
       0.027861511 -0.014357094 0.008418091 0.004337456
0002f0 02 21 55 bc 74 1a ba 3c 23 92 27 3c d7 7f 0f 3d
       -0.013008358 0.022717692 0.010227713 0.035034027
000300 35 2a 45 3c f6 2f 9a bc b6 6b e8 3c 96 c4 90 3b
       0.012033989 -0.018821698 0.028371673 0.004417966
000310 ee 94 2e 3c ae 17 4f bc 44 47 a0 3b e1 c5 a1 3c
       0.010655625 -0.012639923 0.004891308 0.019747676
000320 0f 17 a2 bb 3c fe 14 3d 93 3b b1 3c b4 a5 6f bc
       -0.0049465965 0.03637527 0.021634853 -0.014626909
000330 17 01 a4 3c c2 ca 36 bc cd df dd 3c 8a 4c 86 3c
       0.02002005 -0.01115674 0.027084256 0.016393919
000340 01 7a dc bc 88 5a 01 bc de 98 d0 bc ca 57 d5 bc
       -0.026913645 -0.0078951195 -0.025463518 -0.026042838
000350 58 67 d1 bc e1 9e 58 bc ea 15 a4 bc ee fb b3 bc
       -0.025561973 -0.013221473 -0.02002998 -0.021970715
000360 a2 49 33 3c c6 55 fa 3c 7a 29 92 3c c4 67 f2 bc
       0.010942848 0.030558478 0.017842043 -0.029590495
000370 13 51 ce 39 89 93 87 3c 3e 4a bf 3a 06 8f 42 3c
       0.00039351787 0.016549842 0.001459427 0.01187492
000380 cf 13 96 3b ae f9 00 bd ae 0a 01 3d b5 86 56 bc
       0.004579998 -0.031488113 0.031504326 -0.01309364
000390 ac f3 ce 3c 89 14 2d bc d4 6c 2b 3c 11 6e f4 bc
       0.025262676 -0.010563978 0.010462958 -0.02983764
0003a0 2d 38 98 bc d5 05 a4 bc 85 3f d4 bc 4a 3a 85 bc
       -0.018581474 -0.020022312 -0.025909195 -0.016263146
0003b0 e4 98 ab 3c 15 4c 9d 3b 3b bf a6 3b f9 f5 d7 bb
       0.020946927 0.0048003295 0.0050887144 -0.0065906015
0003c0 d0 b3 3b bb a2 ff c1 3c f2 f5 a2 3c 78 ec 97 bb
       -0.0028641112 0.023681466 0.019892666 -0.0046363436
0003d0 22 83 10 3d a2 e9 46 bc bd 0c d0 bc 99 7c 55 bb
       0.035281308 -0.012140663 -0.0253967 -0.0032575487
0003e0 ff b0 14 3c 6b 0b c2 3c 21 61 b4 bc 9e 9c 9e 3c
       0.009075402 0.023687085 -0.02201897 0.01936179
0003f0 bb 5c 56 3c 0d 31 bb bc bf fc 8b 3b a7 5a 66 bc
       0.013083632 -0.022850538 0.004272073 -0.014059699

weight f4 [10, 256]
000000 1f 95 0c bc f5 05 df 3d 70 a3 f6 3d 86 88 60 3d
       -0.008580475 0.10889808 0.12042892 0.0548177
000010 24 01 2d bc 06 30 e3 bc 74 00 4f bc 58 75 36 bc
       -0.010559354 -0.02773286 -0.012634385 -0.011136375
000020 b1 c4 e4 3d c0 81 44 bd a8 5a 0f 3d 1d 00 79 bd
       0.111703284 -0.0479753 0.034998566 -0.060791124
000030 44 17 67 3d 62 ce 01 bc 1b 92 55 bb 28 ec d2 3d
       0.056418672 -0.007922741 -0.0032588306 0.102989495
000040 1b 30 22 bd 50 76 75 bd c2 fc 44 3d 90 5b 7a 3d
       -0.03959666 -0.059927285 0.04809261 0.061122477
000050 39 b2 19 3d 67 64 4a bd 6e 97 4b 3d 55 bf 34 3d
       0.037523482 -0.049412157 0.04970496 0.04412778
000060 1a c3 9e 3d cc a7 09 3c c8 f5 05 bd c9 7a 0e 3d
       0.077520564 0.008401822 -0.0327051 0.034785066
000070 7e 19 17 be dc 41 d3 3c 5b bc e1 bc cf 38 67 bd
       -0.14755818 0.02578824 -0.027555635 -0.05645066
000080 d1 16 3f 3d 2c 74 4a bd 47 04 f5 bc d6 e6 38 3d
       0.04665262 -0.049427196 -0.029909266 0.045142017
000090 1a 8c b2 bd 13 dc b3 bd 3c 13 9f 3b 28 fc 02 bc
       -0.087181285 -0.0878221 0.004854588 -0.007994689
0000a0 53 95 a1 bd 2e cc a2 3c b5 7c 65 bd 3e 2d 10 3d
       -0.078898095 0.019872751 -0.056027133 0.035199396
0000b0 3e f2 97 3b 06 87 56 bd 2f da 8e 3d 0f d0 0b 3b
       0.004637032 -0.052374862 0.06975209 0.002133373
0000c0 dd 88 3d 3d 77 03 9f 3d b4 04 4b bd 40 38 83 bc
       0.0462731 0.07764333 -0.049565032 -0.016018033
0000d0 c7 42 bd bd 59 82 58 3d 32 2f 04 3e 42 e8 79 3d
       -0.092412524 0.052858684 0.12908629 0.061012514
0000e0 c8 47 aa bd 06 3d 6b 3d 43 f9 81 bd 55 8c 67 bd
       -0.083144724 0.057431243 -0.06346371 -0.056530315
0000f0 50 bd 8a bd 34 fc 2c bc 8c b8 15 3d 57 48 73 bd
       -0.0677439 -0.010558177 0.03655295 -0.05939516
000100 1f d4 33 bd df 6f ff bc b0 34 c4 bc c0 eb 82 3d
       -0.043903466 -0.031181274 -0.023950905 0.06392622
000110 85 3a 85 bd 57 0e 73 bc 1d 67 73 3c 75 68 57 bd
       -0.06505302 -0.014834962 0.014856127 -0.052589852
000120 f9 3f 92 3c 48 ec a9 3b 9a 36 82 bd 9c 25 4c 3d
       0.01785277 0.0051856376 -0.06358071 0.049840555
000130 f9 48 53 3d 00 a8 d7 3d 90 37 7f bd 10 3d c1 bd
       0.051583264 0.1053009 -0.062308848 -0.09435475
000140 96 40 fa 3d fe a7 9a bd 31 e0 13 3d bf 78 73 3d
       0.1221935 -0.07551573 0.036102477 0.059441324
000150 01 d3 f5 3d ce 38 2b bd d6 38 fe bc d3 8b 2f bd
       0.120031364 -0.04180222 -0.03103296 -0.042857956
000160 fe c6 4d 3c bf d2 66 3c 43 62 31 bd bb 9f 39 bd
       0.0125596505 0.014088332 -0.0433066 -0.045318346
000170 f5 d9 e1 bc 2d ae 6d 3d 07 f7 e8 3d 77 2b 8e bd
       -0.02756975 0.058027435 0.11375242 -0.06941884
000180 16 27 26 3c 59 69 b8 bd 0b 9f c8 3d 86 af 08 3d
       0.010141155 -0.090044685 0.0979596 0.033370517
000190 ef 1f 60 3c 17 af a2 3d 48 c1 c0 3d 23 fc 5d 3d
       0.013679489 0.07943552 0.094118655 0.054195534
0001a0 e3 6d 91 bd 89 f2 8f 3d 80 50 21 3d 3e 04 f4 b8
       -0.07101037 0.07028682 0.03938341 -0.00011635617
0001b0 bb 7f db bb 65 14 aa 3c 38 cd c1 3d ef 2c 19 bb
       -0.0066985763 0.020761678 0.094629705 -0.002337273
0001c0 37 57 96 bd 31 a5 c2 3c 4a bf 38 bb 29 bd c3 3b
       -0.07340854 0.02376041 -0.002819019 0.0059734774
0001d0 1e 34 8b 3d 10 c8 d7 3b 4a 13 b2 bc 53 95 0b 3e
       0.0679705 0.0065851286 -0.021737713 0.13631181
0001e0 14 0b 4a bd 16 e4 8a 3c 3d 98 31 3d 17 0f 8e 3d
       -0.04932697 0.016954463 0.043358076 0.06936472
0001f0 d9 43 e5 bc 5c 27 eb bc 30 95 56 bd 04 d9 da bd
       -0.027986454 -0.028705291 -0.05238837 -0.10685924
000200 73 2f bd bd d9 d9 ce 3d 16 57 f8 bd 29 af 49 3d
       -0.09237566 0.10100145 -0.12125985 0.04923931
000210 94 dd 3e bd 5d 3e 2e bd c9 cd 05 bd 22 4c ee bd
       -0.046598032 -0.042539943 -0.032666955 -0.11635615
000220 09 25 a2 bc ff 46 03 3d 73 7b 0d 3d 9e d9 93 bc
       -0.01979305 0.03205013 0.03454156 -0.018048104
000230 de 4c 29 3d 35 a8 5a bd aa 86 19 bd 7c 3b 30 3d
       0.041333072 -0.05338307 -0.03748194 0.04302548
000240 ec 66 31 bc 3e d4 5c bd 1e f0 08 3d 04 06 43 bd
       -0.010827761 -0.053913347 0.03343212 -0.04761316
000250 47 97 22 be ab 6e 30 3d 73 44 cc 3d fd e1 2a bd
       -0.1587802 0.04307429 0.09973993 -0.041719425
000260 71 a7 29 bd e1 39 ee bd 34 3e ce 3d ed cb 0d 3e
       -0.04141945 -0.11632133 0.10070458 0.13847323
000270 ee b2 9c bc 7e 5d fc bd ff 03 80 bc aa 87 e0 3d
       -0.01912829 -0.1232252 -0.015626905 0.10963376
000280 f3 b7 8d 3d 91 04 90 3d d3 fc d2 3c bc 52 6f 3c
       0.06919851 0.07032121 0.025755322 0.014607128
000290 39 a9 01 3d 3a 38 6a bb 0f 1d 66 bd e0 19 8b bc
       0.031655524 -0.003573908 -0.056180056 -0.016980112
0002a0 d3 80 b6 3d 6c 64 a4 bd 87 56 25 bd 18 e0 62 3d
       0.0891129 -0.080269665 -0.040365722 0.055389494
0002b0 41 b4 c2 bc 54 5e 14 bc 9d 40 87 bd 10 1d 0e 3d
       -0.023767592 -0.009055693 -0.06604121 0.034695685
0002c0 3b 80 c8 3c 8b 56 11 be 45 10 96 3d fd c9 04 3d
       0.024475208 -0.1419317 0.07327322 0.032419194
0002d0 ff 28 64 3d 99 2c c2 3d 7c c3 44 bc 02 ed ad bd
       0.05570316 0.094811626 -0.012009498 -0.08492471
0002e0 2a 4f 5d bd f8 fa 30 bc 7c 16 29 bd ac c9 95 3d
       -0.054030575 -0.010802023 -0.04128121 0.073138565
0002f0 56 50 0c be 2a 93 e8 3c 10 95 d3 bd 17 b4 d9 3d
       -0.1370252 0.028390486 -0.10331166 0.106300525
000300 5f c2 3d bd 81 ea 4f bc 34 88 ec bd 2d 5c 81 bd
       -0.046327945 -0.012690187 -0.11549416 -0.06316409
000310 a6 fd 1c 3d e4 e3 38 bc f6 f8 06 3e c7 a2 cd 3d
       0.038327836 -0.011284802 0.13180909 0.10040813
000320 84 cd b2 3a f6 fa 57 bd da fa 35 3c cf 16 98 bd
       0.0013641571 -0.05272957 0.011107171 -0.074262254
000330 e5 f6 6d 3d 13 b0 40 3d b6 81 58 3d 6c 36 2e 3d
       0.058096785 0.047042917 0.052858077 0.04253237
000340 98 c3 a2 3c f5 67 9a 3d 3f 73 35 bd c7 91 12 bc
       0.019868657 0.075393595 -0.04429936 -0.008945889
000350 1b b0 b4 bd 08 50 16 3d 75 cb 10 bd 7e 54 34 3d
       -0.08822652 0.036697417 -0.03535028 0.04402589
000360 95 38 53 bd c9 01 22 3b 87 5f b6 3d a1 39 23 bd
       -0.051567633 0.0024720302 0.08904939 -0.03984988
000370 b2 5a b4 3d 7e f4 11 bd 16 66 3e bd 94 1c e7 3d
       0.08806361 -0.035633557 -0.046484075 0.11284748
000380 cb 04 b1 bd 8d 15 59 3d f7 5c c3 3d db 27 bd bd
       -0.08643492 0.052999068 0.09539216 -0.092361175
000390 18 9e 77 3c 30 a7 08 3d c2 ba c5 3c 3f 9a 4e bd
       0.015113376 0.033362567 0.024136905 -0.05044007
0003a0 08 59 18 bc 35 0d ef bc 42 fd 7b 3d 63 20 f3 3d
       -0.00929857 -0.029181102 0.061520822 0.11871412
0003b0 cd ca 17 bd a6 4c 97 3c a5 f7 d9 bd dd af 6b 3d
       -0.03705864 0.018469166 -0.106429376 0.057540763
0003c0 21 2d 9a bd 97 0e d6 3d 25 8f b5 3c 9b 3c 7f bc
       -0.07528139 0.104520015 0.022162983 -0.015578414
0003d0 61 77 b3 bd 08 93 ca 3d 16 69 6a 3d 1d cb 0b bd
       -0.08763004 0.09891325 0.057229124 -0.03412925
0003e0 1a af d6 bd f0 b2 c6 bd 61 c4 db bb db 8a b9 bd
       -0.10482617 -0.09702098 -0.00670676 -0.09059688
0003f0 85 ff 32 3d 6f 46 32 bd 46 9c 08 3d 42 0d 3b bd
       0.043700714 -0.043524202 0.03335216 -0.04566694

bias f4 [10]
000000 14 d7 1a 3d 4a e3 c2 3d 0e 76 73 bd e9 d7 64 bb
       0.03780277 0.09516008 -0.059438758 -0.0034918732
000010 88 55 38 bd 90 aa ce 3c 62 99 31 3d 6f f8 7b bc
       -0.045003444 0.025227815 0.043359168 -0.015379055
000020 fd f2 44 3c 36 e6 42 bd
       0.012020824 -0.047582828
